{"modelTopology": {"keras_version": "2.1.4", "backend": "tensorflow", "model_config": {"class_name": "Sequential", "config": [{"class_name": "LSTM", "config": {"name": "lstm_7", "trainable": true, "batch_input_shape": [null, null, 1], "dtype": "float32", "return_sequences": false, "return_state": false, "go_backwards": false, "stateful": false, "unroll": false, "units": 3, "activation": "tanh", "recurrent_activation": "hard_sigmoid", "use_bias": true, "kernel_initializer": {"class_name": "VarianceScaling", "config": {"scale": 1.0, "mode": "fan_avg", "distribution": "uniform", "seed": null}}, "recurrent_initializer": {"class_name": "Orthogonal", "config": {"gain": 1.0, "seed": null}}, "bias_initializer": {"class_name": "Zeros", "config": {}}, "unit_forget_bias": true, "kernel_regularizer": null, "recurrent_regularizer": null, "bias_regularizer": null, "activity_regularizer": null, "kernel_constraint": null, "recurrent_constraint": null, "bias_constraint": null, "dropout": 0.0, "recurrent_dropout": 0.0, "implementation": 1}}, {"class_name": "Dense", "config": {"name": "dense_7", "trainable": true, "units": 1, "activation": "linear", "use_bias": true, "kernel_initializer": {"class_name": "VarianceScaling", "config": {"scale": 1.0, "mode": "fan_avg", "distribution": "uniform", "seed": null}}, "bias_initializer": {"class_name": "Zeros", "config": {}}, "kernel_regularizer": null, "bias_regularizer": null, "activity_regularizer": null, "kernel_constraint": null, "bias_constraint": null}}]}, "training_config": {"optimizer_config": {"class_name": "RMSprop", "config": {"lr": 0.0010000000474974513, "rho": 0.8999999761581421, "decay": 0.0, "epsilon": 1e-07}}, "loss": "mean_squared_error", "metrics": [], "sample_weight_mode": null, "loss_weights": null}}, "weightsManifest": [{"paths": ["group1-shard1of1"], "weights": [{"name": "dense_7/kernel", "shape": [3, 1], "dtype": "float32"}, {"name": "dense_7/bias", "shape": [1], "dtype": "float32"}]}, {"paths": ["group2-shard1of1"], "weights": [{"name": "lstm_7/kernel", "shape": [1, 12], "dtype": "float32"}, {"name": "lstm_7/recurrent_kernel", "shape": [3, 12], "dtype": "float32"}, {"name": "lstm_7/bias", "shape": [12], "dtype": "float32"}]}]}